…
":{"base_uri":"https://localhost:8080/","height":1000},"id":"QwLqR8HLxYS1","executionInfo":{"status":"error","timestamp":1694511952370,"user_tz":-480,"elapsed":2398,"user":{"displayName":"潘Murphy","userId":"15458592148805524004"}},"outputId":"1e90e80f-c423-452d-c9cd-9272fc5c5085"},"execution_count":null,"outputs":[{"output_type":"stream","name":"stdout","text":["----------------------------------------------------------------\n","        Layer (type)               Output Shape         Param #\n","================================================================\n","            Conv2d-1         [-1, 64, 224, 224]           1,792\n","              ReLU-2         [-1, 64, 224, 224]               0\n","            Conv2d-3         [-1, 64, 224, 224]          36,928\n","              ReLU-4         [-1, 64, 224, 224]               0\n","         MaxPool2d-5         [-1, 64, 112, 112]               0\n","            Conv2d-6        [-1, 128, 112, 112]          73,856\n","              ReLU-7        [-1, 128, 112, 112]               0\n","            Conv2d-8        [-1, 128, 112, 112]         147,584\n","              ReLU-9        [-1, 128, 112, 112]               0\n","        MaxPool2d-10          [-1, 128, 56, 56]               0\n","           Conv2d-11          [-1, 256, 56, 56]         295,168\n","             ReLU-12          [-1, 256, 56, 56]               0\n","           Conv2d-13          [-1, 256, 56, 56]         590,080\n","             ReLU-14          [-1, 256, 56, 56]               0\n","           Conv2d-15          [-1, 256, 56, 56]         590,080\n","             ReLU-16          [-1, 256, 56, 56]               0\n","        MaxPool2d-17          [-1, 256, 28, 28]               0\n","           Conv2d-18          [-1, 512, 28, 28]       1,180,160\n","             ReLU-19          [-1, 512, 28, 28]               0\n","           Conv2d-20          [-1, 512, 28, 28]       2,359,808\n","             ReLU-21          [-1, 512, 28, 28]               0\n","           Conv2d-22          [-1, 512, 28, 28]       2,359,808\n","             ReLU-23          [-1, 512, 28, 28]               0\n","        MaxPool2d-24          [-1, 512, 14, 14]               0\n","           Conv2d-25          [-1, 512, 14, 14]       2,359,808\n","             ReLU-26          [-1, 512, 14, 14]               0\n","           Conv2d-27          [-1, 512, 14, 14]       2,359,808\n","             ReLU-28          [-1, 512, 14, 14]               0\n","           Conv2d-29          [-1, 512, 14, 14]       2,359,808\n","             ReLU-30          [-1, 512, 14, 14]               0\n","        MaxPool2d-31            [-1, 512, 7, 7]               0\n","AdaptiveAvgPool2d-32            [-1, 512, 7, 7]               0\n","           Linear-33                 [-1, 4096]     102,764,544\n","             ReLU-34                 [-1, 4096]               0\n","          Dropout-35                 [-1, 4096]               0\n","           Linear-36                 [-1, 4096]      16,781,312\n","             ReLU-37                 [-1, 4096]               0\n","          Dropout-38                 [-1, 4096]               0\n","           Linear-39                 [-1, 1000]       4,097,000\n","================================================================\n","Total params: 138,357,544\n","Trainable params: 138,357,544\n","Non-trainable params: 0\n","----------------------------------------------------------------\n","Input size (MB): 0.57\n","Forward/backward pass size (MB): 218.78\n","Params size (MB): 527.79\n","Estimated Total Size (MB): 747.15\n","----------------------------
…
